neuro-symbolic-vr-tool/UnityProject/My project/Assets/Models/vr_model.onnx (onnx, 1203 bytes, 4 tensors)

fc1.weight f4 [16, 7]
-0.43851122 0.5832359 -0.4840694 0.5614866 0.8527979 -1.0276226 0.6520374 0.7566719
0.42045107 0.5117537 -0.2231134 -0.5926106 0.48384264 0.045575224 0.04574434 0.21748781
-0.3778971 -0.23797758 0.04566087 0.105700724 -0.20520407 -0.3457806 -0.104088634 -0.16877219
-0.26159316 -0.23485793 0.039391965 -0.11339298 0.6194894 -0.8672293 0.5592124 0.25108764
0.9483214 0.54612976 -0.306192 0.72904676 0.13621858 0.84394443 -0.25058925 -0.4258442
0.7776968 0.84151495 -0.51906216 0.8080621 -0.60804164 0.8714099 0.16686505 -0.58917946
0.09546898 -0.03996192 0.818384 0.35892776 0.2834907 -0.7705234 -0.066370346 0.57747084
-0.48397937 0.32601294 -0.1668153 0.88620317 -0.037875067 -0.112696856 -0.106089145 -0.23171048
0.0670562 0.08628884 0.08253855 -0.21278724 0.2796518 -0.4275845 0.07130789 -0.7142676
0.33698788 -0.009728199 0.73555213 0.9113744 -0.56355685 0.6737058 0.83232206 0.7311345
-0.71736914 -0.9701505 -0.26413745 0.46871042 -0.43988624 0.77444035 -0.0144437635 0.61593896
-0.4279222 0.09388187 0.8000328 0.7397468 -0.1046921 0.33953708 0.053416695 0.045747656
0.7904693 -0.19465086 0.17248838 -0.6442069 0.47360933 -0.016245514 0.53975666 0.86390936
-0.4173534 -0.27704018 -0.337938 -0.37242645 -0.37589085 0.15950507 0.13952863 0.3678434
00000000: 8b84 e0be f34e 153f f2d7 f7be 96bd 0f3f
00000010: f750 5a3f 2389 83bf eceb 263f 40b5 413f
00000020: 5d45 d73e 4a02 033f d777 64be 54b5 17bf
00000030: 39ba f73e 16ad 3a3d 6b5e 3b3d 20b5 5e3e
00000040: bb7b c1be 65b0 73be e406 3b3d 9f79 d83d
00000050: 0421 52be 280a b1be 6c2c d5bd 9ed2 2cbe
00000060: 8aef 85be 997e 70be 7859 213d 943a e8bd
00000070: db96 1e3f bd02 5ebf 8b28 0f3f 8f8e 803e
00000080: 31c5 723f 29cf 0b3f 33c5 9cbe cfa2 3a3f
00000090: e27c 0b3e be0c 583f 3c4d 80be 4008 dabe
000000a0: 2317 473f 866d 573f 42e1 04bf 28dd 4e3f
000000b0: 9ea8 1bbf b814 5f3f acde 2a3e 77d4 16bf
000000c0: 3e85 c33d 1caf 23bd 9d81 513f 61c5 b73e
000000d0: b125 913e 0641 45bf 2ded 87bd 21d5 133f
000000e0: 25cc f7be 2beb a63e a1d1 2abe 36de 623f
000000f0: e322 1bbd 9ccd e6bd 4445 d9bd 8345 6dbe
00000100: c354 893d 34b8 b03d f909 a93d e6e4 59be
00000110: 852e 8f3e 5bec dabe df09 923d 3eda 36bf
00000120: ad89 ac3e 0663 1fbc 254d 3c3f d54f 693f
00000130: 4345 10bf fc77 2c3f 0f13 553f a12b 3b3f
00000140: 81a5 37bf c85b 78bf 063d 87be d0fa ef3e
00000150: c538 e1be b941 463f 89a5 6cbc 2dae 1d3f
00000160: 9e18 dbbe 2345 c03d f3ce 4c3f 0c60 3d3f
00000170: d068 d6bd ced7 ad3e 77cb 5a3d e561 3b3d
00000180: 325c 4a3f 8e52 47be cba0 303e beea 24bf
00000190: ec7c f23e 5015 85bc 7e2d 0a3f 2a29 5d3f
000001a0: 58af d5be 36d8 8dbe 3606 adbe aeae bebe
000001b0: c474 c0be 4c55 233e 98e0 0e3e f855 bc3e

fc1.bias f4 [16]
0.8581883 -0.044070728 -0.21526548 0.3659542 0.026115566 0.024833152 0.7218244 0.3191688
0.5574556 -0.23786652 0.41316772 -0.08802019 0.79562414 0.17956792 -0.05680626 0.07304699
00000000: 3ab2 5b3f 8283 34bd 8e6e 5cbe 595e bb3e
00000010: 50f0 d53c e56e cb3c 7cc9 383f 186a a33e
00000020: 69b5 0e3f 4893 73be b88a d33e ee43 b4bd
00000030: 06ae 4b3f a7e0 373e aead 68bd a999 953d

fc2.weight f4 [3, 16]
-0.5108838 0.16382545 0.07282903 -0.014802188 0.63707817 0.30902562 -0.4719057 -0.8606252
-0.6133055 -0.036236227 0.7683347 -0.7693559 -0.7208927 0.5404601 0.6470542 0.04443584
0.7394902 -0.6147572 0.03723585 -0.19804913 -0.52569586 -0.4838939 0.4323013 0.12571603
0.70588803 0.10356231 -0.17309369 -0.585952 0.6131006 -0.6249934 -0.38497236 -0.10435128
-0.58246565 0.47165585 -0.099327266 -0.24130991 -0.8907655 0.8410067 -0.80452853 0.37319958
-0.576083 0.15586025 -0.64815176 0.6872495 0.24787752 0.09583986 -0.9607117 0.016995572
00000000: 48c9 02bf dcc1 273e 6327 953d e084 72bc
00000010: 8e17 233f 9b38 9e3e a09d f1be ef51 5cbf
00000020: 9701 1dbf 706c 14bd 95b1 443f 82f4 44bf
00000030: 6d8c 38bf 985b 0a3f 58a5 253f 5b02 363d
00000040: 3b4f 3d3f ba60 1dbf 9e84 183d 64cd 4abe
00000050: 0194 06bf f1c0 f7be 9956 dd3e b4bb 003e
00000060: 14b5 343f 7a18 d43d 793f 31be f300 16bf
00000070: 29f4 1c3f 91ff 1fbf 191b c5be 20b6 d5bd
00000080: 781c 15bf e07c f13e 186c cbbd f219 77be
00000090: 3509 64bf 374c 573f 95f5 4dbf 0414 bf3e
000000a0: 2d7a 13bf d499 1f3e 46ed 25bf 95ef 2f3f
000000b0: 9bd3 7d3e b047 c43d 34f1 75bf 4c3a 8b3c

fc2.bias f4 [3]
-0.1093144 0.20495607 -0.4121095
00000000: 3ae0 dfbd 01e0 513e 0400 d3be
