neuro-symbolic-vr-tool/vr_action_model.pth (torch, 2384 bytes, 4 tensors)

fc1.weight f4 [8, 3]
1.686388 -1.4342498 -2.3188016 0.26743397 -0.28242013 -0.35249078 -2.0090778 1.5546975
-0.026253175 -2.196001 0.41248953 2.1960497 1.5332732 -0.5865656 1.7491257 0.65708095
0.656847 2.118413 0.1783053 -0.093728416 0.277418 -0.18368277 -0.45439127 0.5265051
00000000: 90db d73f 7f95 b7bf 3f67 14c0 1bed 883e
00000010: 5f99 90be ac79 b4be bb94 00c0 5400 c73f
00000020: e610 d7bc 488b 0cc0 d431 d33e 148c 0c40
00000030: 4c42 c43f 2a29 16bf 5ae3 df3f 7536 283f
00000040: 2027 283f 1494 0740 aa95 363e aff4 bfbd
00000050: bb09 8e3e 5617 3cbe f9a5 e8be 0ac9 063f

fc1.bias f4 [8]
1.446292 -0.44558692 0.9396972 -0.4124319 0.58649826 -0.6567128 -0.7186737 -0.40977198
00000000: 1920 b93f f823 e4be ff8f 703f 462a d3be
00000010: c024 163f 541e 28bf 00fb 37bf a2cd d1be

fc2.weight f4 [4, 8]
-1.6640648 -0.07112633 -1.9357526 -2.0013165 1.7077798 1.4308177 -0.081948385 0.29044053
-0.89482385 0.119962506 1.8453802 -2.1146336 -1.3750165 -1.5456159 0.15448014 0.0347735
1.512677 -0.060716726 -1.5293242 -0.6495859 0.44987866 -1.7995827 -0.43281057 -0.29025275
-0.76064444 -0.4734164 0.3189468 1.9289457 -0.29320976 0.9455319 -0.022382667 -0.23860067
00000000: 1300 d5bf aeaa 91bd bec6 f7bf 9215 00c0
00000010: 8798 da3f 0925 b73f 8ed4 a7bd 9fb4 943e
00000020: 2d13 65bf e7ae f53d 6b35 ec3f 2856 07c0
00000030: 8a00 b0bf bed6 c5bf 0b30 1e3e a86e 0e3d
00000040: 669f c13f 1ab2 78bd e5c0 c3bf 434b 26bf
00000050: 7f56 e63e ba58 e6bf 5999 ddbe 029c 94be
00000060: 98b9 42bf a263 f2be ff4c a33e b1e7 f63f
00000070: 971f 96be 610e 723f db5b b7bc bc53 74be

fc2.bias f4 [4]
-0.567489 2.1939576 0.5137028 -1.6507267
00000000: f646 11bf cd69 0c40 0782 033f 034b d3bf
