neuro-symbolic-vr-tool/trained_models/vr_model.onnx (onnx, 1203 bytes, 4 tensors)

fc1.weight f4 [16, 7]
0	0x3f3f06ff	0.7462005
1	0x3f2cc4e9	0.6748796
2	0x3f47de67	0.78073734
3	0xbf177e79	-0.59177357
4	0xbf1e2fd4	-0.6179173
5	0x3e77e89c	0.24209827
6	0x3f231eb0	0.637187
7	0xbddf9a68	-0.109181225
8	0x3e5b3d52	0.2141011
9	0xbd1d4e38	-0.038404673
10	0xbea7e5d6	-0.32792538
11	0x3dd7e6c4	0.10542062
12	0x3e07c546	0.13258848
13	0x3dc092e0	0.09403014
14	0x3f48a807	0.7838139
15	0xbf5e85c1	-0.8692284
16	0x3e998c46	0.29989833
17	0x3e224f96	0.15850672
18	0x3f194b05	0.59880096
19	0x3f147a1f	0.5799884
20	0xbf421863	-0.7581846
21	0xbe98afe4	-0.29821694
22	0x3f258b31	0.64665514
23	0xbf22f38f	-0.6365289
24	0x3f2ee64c	0.68320155
25	0x3f671c6b	0.9027774
26	0xbf85ad6c	-1.0443549
27	0x3f05b1f2	0.5222465
28	0x3f04c84c	0.5186813
29	0xbf428d80	-0.7599716
30	0x3f07a7f1	0.52990633
31	0xbda1cf94	-0.079009205
32	0x3f45d9d8	0.7728553
33	0x3f77cd25	0.967974
34	0xbf8977cc	-1.0739684
35	0x3f699999	0.91249996
36	0x3e4189e2	0.18900254
37	0x3ee73a3e	0.45161623
38	0xbf173bb7	-0.5907549
39	0xbf2ef2a4	-0.6833899
40	0x3f3e06f6	0.7422937
41	0x3f83740a	1.0269787
42	0xbb4dbb00	-0.0031391978
43	0xbe940dfe	-0.28916925
44	0xbe743dfd	-0.23851772
45	0xbe8b7704	-0.2723924
46	0x3db0e24c	0.08636913
47	0xbe830735	-0.25591436
48	0xbd7d42a8	-0.061831146
49	0x3f3506bf	0.7071342
50	0xbf1e1565	-0.61751395
51	0x3f54cc83	0.8312456
52	0xbe0368a7	-0.1283289
53	0x3f3b9431	0.73273
54	0x3f16e5d9	0.5894447
55	0xbf84a8bb	-1.0363992
56	0x3d149790	0.036277354
57	0xbde124d0	-0.109933496
58	0xbe88da98	-0.26729274
59	0x3bb7fbc0	0.0056147277
60	0xbe98b6e8	-0.29827046
61	0xbdff5aac	-0.12468466
62	0x3e95ced5	0.29259363
63	0xbe62a4ce	-0.2213318
64	0xbdbd6f73	-0.09249773
65	0xbea5dd81	-0.32395557
66	0xbd611125	-0.05494799
67	0xbec6bb60	-0.3881483
68	0xbe5b614f	-0.21423839
69	0x3e795e03	0.24352269
70	0xbe010087	-0.12597857
71	0x3f64b482	0.89337933
72	0x3ec082aa	0.3759969
73	0xbbb595b8	-0.0055415295
74	0xbf073b87	-0.52825207
75	0x3e56efb9	0.20989884
76	0x3f179d28	0.59224176
77	0xbe3143a1	-0.17310955
78	0xbebbb2a8	-0.3665974
79	0x3e8a839d	0.27053538
80	0x3eb7a63d	0.35869017
81	0xbebf9ee9	-0.37425926
82	0xbeb95412	-0.36196953
83	0xbea1850e	-0.31546825
84	0xbd7e1d20	-0.062039495
85	0xbe9b77a6	-0.30364722
86	0x3e04ae7a	0.12957183
87	0xbec068cd	-0.37579957
88	0xbd89e1ac	-0.067324966
89	0xbb8ef180	-0.004362285
90	0x3dc41264	0.0957382
91	0xbdfe91b4	-0.124301344
92	0xbe9daa5c	-0.30794036
93	0xbebbfa5c	-0.36714447
94	0x3d981234	0.07425347
95	0x3c985300	0.018594265
96	0xbe224937	-0.15848242
97	0xbe894ed9	-0.26817968
98	0xbcb1e845	-0.0217172
99	0x3f7c758d	0.9861687
100	0xbec5cec6	-0.38634318
101	0x3f7b1e75	0.9809335
102	0xbe4338af	-0.19064592
103	0xbe8a5559	-0.2701824
104	0x3f2aab97	0.66668075
105	0x3f4cc5e4	0.7998946
106	0x3f073a3f	0.5282325
107	0x3f3b0c0d	0.73065263
108	0xbf4ab679	-0.7918468
109	0xbf8e09ee	-1.109678
110	0x3e664ca9	0.22490181
111	0x3f88d277	1.0689229

fc1.bias f4 [16]
0	0xbe0176a3	-0.12642913
1	0xbec0a585	-0.3762628
2	0x3eacd519	0.3375633
3	0x3f766125	0.9624198
4	0x3e4eeca2	0.20207456
5	0x3e9bec1f	0.30453584
6	0xbea39ab6	-0.31953973
7	0x3f01b160	0.5066128
8	0xbd1bf798	-0.03807792
9	0xbde598bd	-0.11210773
10	0xbd765904	-0.060143486
11	0x3cbc9230	0.023018926
12	0xbe64b065	-0.22332914
13	0x3e926773	0.2859455
14	0x3f838917	1.0276212
15	0x3e3fd2d5	0.1873277

fc2.weight f4 [3, 16]
0	0xbeb55abe	-0.35420793
1	0xbbb32b40	-0.0054678023
2	0x3f374873	0.71594924
3	0xbf0ad791	-0.5423518
4	0x3f5d6c86	0.8649372
5	0x3eaa96c8	0.33318162
6	0xbda493f8	-0.08036035
7	0x3eda88f1	0.42682603
8	0x3e6a5604	0.22884375
9	0xbd46fe20	-0.048582196
10	0xbf2cfe74	-0.67575765
11	0xbe422bbe	-0.18961999
12	0x3e353526	0.17696056
13	0xbe15d99c	-0.14633793
14	0xbef9e49a	-0.48807222
15	0xbe35a118	-0.17737234
16	0xbf357681	-0.7088395
17	0x3d51b408	0.05119708
18	0xbef05198	-0.4693725
19	0x3f741a16	0.95352304
20	0xbeb4e6a0	-0.35332203
21	0xbf0dfc5d	-0.554632
22	0xbe065248	-0.13117325
23	0xbf211064	-0.62915635
24	0xbe6297e0	-0.22128248
25	0x3d2e2263	0.042513262
26	0x3e20909b	0.15680163
27	0x3db878c8	0.09007412
28	0x3d28d398	0.041217417
29	0x3e6b31a0	0.22968149
30	0x3f6f2bdc	0.934263
31	0xbe8bc8a4	-0.27301514
32	0x3f40cb84	0.7531054
33	0x3e5afae8	0.21384776
34	0xbf1c7331	-0.6111327
35	0xbf75efe6	-0.9606918
36	0xbf0780eb	-0.5293109
37	0x3f2109a2	0.62905324
38	0x3dbe70f0	0.09298885
39	0xbf556931	-0.83363634
40	0x3e2de504	0.16981894
41	0xbe1f7fa9	-0.15576042
42	0x3f1a54a3	0.60285395
43	0x3e107e06	0.14110574
44	0x3cc57740	0.024104714
45	0xbe738e9e	-0.23784873
46	0x3d4c0dff	0.049818035
47	0x3f5c599f	0.8607425

fc2.bias f4 [3]
0	0xbeb193d6	-0.34683102
1	0x3f47c1c6	0.7803005
2	0xbf5f6303	-0.87260455
